…
 INFO: 02_transfer_learning_even_odd]: 
********************
[2022-08-30 20:23:45,031: INFO: 02_transfer_learning_even_odd]: >>>>> stage Transfer Learning started <<<<<
[2022-08-30 20:23:45,031: INFO: common]: yaml file: configs/config.yaml loaded successfully
[2022-08-30 20:23:46,631: INFO: 02_transfer_learning_even_odd]: Loaded base model summary: 
Model: "sequential"
_________________________________________________________________
 Layer (type)                Output Shape              Param #   
=================================================================
 inputLayer (Flatten)        (None, 784)               0         
                                                                 
 hiddenLayer1 (Dense)        (None, 300)               235500    
                                                                 
 leaky_re_lu (LeakyReLU)     (None, 300)               0         
                                                                 
 hiddenLayer2 (Dense)        (None, 100)               30100     
                                                                 
 leaky_re_lu_1 (LeakyReLU)   (None, 100)               0         
                                                                 
 outputLayer (Dense)         (None, 10)                1010      
                                                                 
=================================================================
Total params: 266,610
Trainable params: 266,610
Non-trainable params: 0
_________________________________________________________________

[2022-08-30 20:23:46,659: INFO: 02_transfer_learning_even_odd]: Loaded new model summary: 
Model: "sequential"
_________________________________________________________________
 Layer (type)                Output Shape              Param #   
=================================================================
 inputLayer (Flatten)        (None, 784)               0         
                                                                 
 hiddenLayer1 (Dense)        (None, 300)               235500    
                                                                 
 leaky_re_lu (LeakyReLU)     (None, 300)               0         
                                                                 
 hiddenLayer2 (Dense)        (None, 100)               30100     
                                                                 
 leaky_re_lu_1 (LeakyReLU)   (None, 100)               0         
                                                                 
 outputLayer (Dense)         (None, 2)                 202       
                                                                 
=================================================================
Total params: 265,802
Trainable params: 202
Non-trainable params: 265,600
_________________________________________________________________

[2022-08-30 20:24:56,563: INFO: common]: created directory at: artifacts\models
[2022-08-30 20:24:56,588: INFO: 02_transfer_learning_even_odd]: Transfer learning model is saved at artifacts\models\even_odd_transfer_model.h5
…
